data/Cl_model.npz (npz, 160918 bytes, 4 tensors)

TT f8 [5001]
00000000: 0000 0000 0000 0000 2370 c1d8 75f2 aa40
00000010: 2fb5 e64b 7b76 9240 3a90 7cb1 786e 8140
00000020: 2314 9499 a5b9 7340 f7b1 ee18 d116 6940
00000030: 4b42 cdef 6b50 6140 8de4 c5b3 d960 5940
00000040: 0148 b5e3 a873 5340 e054 54e6 b5e1 4e40
00000050: 8696 53bf a433 4940 21f2 a547 7006 4540
00000060: 66aa 83d6 1ee1 4140 fdeb 93d7 aedc 3e40
00000070: 18b3 bec3 42f6 3a40 4f7b 7602 f9d0 3740
00000080: 1dc1 0ec5 d640 3540 c0f2 e894 b222 3340
00000090: f8ef 0c56 3259 3140 f0fd bf0c 7bb0 2f40
000000a0: 1de6 c5d0 8118 2d40 76d7 13cd bed8 2a40
000000b0: 333e 220f 88e2 2840 3022 74a9 8528 2740
000000c0: 2a61 4ae7 c3a1 2540 ec9f 4999 9546 2440
000000d0: 9f8e d253 0510 2340 6ae2 ad23 adf9 2140
000000e0: 8462 9098 5afe 2040 b0e2 a2bb 2b1b 2040
000000f0: 734d 6582 409a 1e40 e138 9a42 e321 1d40
00000100: 3ec6 64b1 fdc9 1b40 38cc c793 3e8f 1a40
00000110: bbb9 fd6a f56d 1940 f0b8 ff9a 5d63 1840
00000120: 7567 3a33 b56c 1740 cb03 7d4c 9d87 1640
00000130: 6db7 4e48 54b3 1540 bb73 ed75 31ee 1440
00000140: 01ee a9ca df35 1440 e6e7 e7be c489 1340
00000150: 21bd 0dbc fce7 1240 c49b 001c 2c50 1240
00000160: e20c 1269 00c1 1140 0209 9ed9 f03a 1140
00000170: ddb0 5da3 00bd 1040 3fe4 457f 1a46 1040
00000180: f236 d39f ffaa 0f40 c792 61f7 d6d5 0e40
00000190: e2ac 0030 f70c 0e40 fafa 7c6e 5c4e 0d40
000001a0: 1a90 87ef 599a 0c40 e6f2 6265 80ee 0b40
000001b0: bd03 34a9 f949 0b40 72a6 10b7 43ad 0a40
000001c0: d8db 43d0 c318 0a40 0715 bd04 a28b 0940
000001d0: 51eb bfc8 6305 0940 5710 804f 0e85 0840
000001e0: df12 b693 470a 0840 81ec 721b be95 0740
000001f0: 6167 1891 1225 0740 5636 0f36 c7b8 0640
00000200: 325a f535 8651 0640 0b67 4fcc e0ed 0540
00000210: f781 415b 828e 0540 1bd6 9f87 bd32 0540
00000220: 7c7b 4411 2fdb 0440 fdfd 2b00 fd86 0440
00000230: eadc 7a68 5936 0440 7e2c 4d56 b0e8 0340
00000240: d6b4 27c6 dc9d 0340 86f1 dda2 8f55 0340
00000250: ff60 3cc8 ac0f 0340 1967 2396 44cc 0240
00000260: 5d77 90da 108b 0240 049a cec6 224c 0240
00000270: 480e f1b4 880f 0240 48da 7057 dad4 0140
00000280: c7d8 7892 4f9c 0140 8439 c0c1 aa65 0140
00000290: 61ea 1d5b f830 0140 7284 85f6 fbfd 0040
000002a0: 8b4d c689 c2cc 0040 1056 37ba f29c 0040
000002b0: 29f7 1cc0 9c6e 0040 7a14 c8af 0e42 0040
000002c0: 7dfe 3eec 7516 0040 1a23 289e c3d8 ff3f
000002d0: c768 f151 0787 ff3f d5cf 222b 6137 ff3f
000002e0: 91cc 7eb2 2fea fe3f 1682 434a 599f fe3f
000002f0: ac1c 8b49 2156 fe3f cbf0 60d1 1b0f fe3f
00000300: 21e0 137f 60c9 fd3f 1d0e a5d9 1b86 fd3f
00000310: 4c0d afe1 9b44 fd3f 20c7 1a7c 6d04 fd3f
00000320: 20b2 6353 18c6 fc3f cafd 9797 2b89 fc3f
00000330: bc36 e6a8 844e fc3f 1876 f2be 9d14 fc3f
00000340: ad7d b3bd 27dc fb3f 27bf ce32 eaa4 fb3f
00000350: 3b88 25c5 066f fb3f f481 e09c c839 fb3f
00000360: 0e2d 2064 2706 fb3f be8b 345d 99d3 fa3f
00000370: d14e c372 eea1 fa3f 3b51 ad37 4871 fa3f
00000380: 14b4 2b25 9e41 fa3f 8baa 4dd4 0d13 fa3f
00000390: 547b 65a0 42e5 f93f 7121 7c2c 80b8 f93f
000003a0: 2d76 1213 518c f93f 71ae cbb6 3f61 f93f
000003b0: a5e4 ad01 fc36 f93f d9cd 45f7 3a0d f93f
000003c0: 1667 282b 3de4 f83f d924 5d49 babb f83f
000003d0: 914c 0259 d093 f83f 3a14 2d45 7b6c f83f
000003e0: 52ec be1d b745 f83f 87fe e205 611f f83f
000003f0: fc36 c65c 95f9 f73f bc48 4576 32d4 f73f
00000400: 71a1 4344 36af f73f bdcc 55f2 bb8a f73f
00000410: 0a7b 847c a366 f73f 6138 6a24 eb42 f73f
00000420: b0f6 f894 ad1f f73f 1e7e d296 b1fc f63f
00000430: d158 e863 12da f63f 5944 eaeb ceb7 f63f
00000440: ea3a 809b b195 f63f cae7 b46d ef73 f63f
00000450: 3ff5 7ec7 6d52 f63f b42a eb60 fa30 f63f
00000460: 875a 3276 fa0f f63f ffd8 6213 0aef f53f
00000470: 6dcc 2071 73ce f53f 7a49 dc9d 1dae f53f
00000480: 02a3 098d d98d f53f d8f0 f510 c06d f53f
00000490: 37b6 cf36 164e f53f f9ed 06e8 522e f53f
000004a0: 0931 bc05 bc0e f53f db5f 27f3 67ef f43f
000004b0: 177e fb77 15d0 f43f f6f5 903c f1b0 f43f
000004c0: 9e78 8f0b d191 f43f 370c 91d0 df72 f43f
000004d0: 8df3 01c3 0854 f43f 3cce d760 4c35 f43f
000004e0: e184 222b 8316 f43f 689c faf4 fdf7 f33f
000004f0: 2ed0 5530 81d9 f33f ad73 7df2 0dbb f33f
00000500: 3c27 e43f b89c f33f de83 f45c 807e f33f
00000510: 1946 5f00 5460 f33f 6ffc 2da9 5842 f33f
00000520: 1038 b789 4524 f33f b40f a735 6406 f33f
00000530: f3ad 28da 90e8 f23f 5e7f caa3 ddca f23f
00000540: 7388 9af4 16ad f23f 3fe0 9ebd 608f f23f
00000550: 3bc2 e39a bb71 f23f 382a 1adb 0654 f23f
00000560: 4d28 41a1 5436 f23f 04d8 4fbb 9518 f23f
00000570: 4e37 16dc ebfa f13f 6fa2 a388 47dd f13f
00000580: 19aa 9550 8abf f13f 7fef b574 d5a1 f13f
00000590: ede5 f8b8 1a84 f13f 9182 b4b1 5b66 f13f
000005a0: e317 5dea b748 f13f 68b5 5c4a 032b f13f
000005b0: 42b3 ae65 4e0d f13f 1fb0 750a 8cef f03f
000005c0: 23c9 e6b6 dad1 f03f 68b2 a2f3 2cb4 f03f
000005d0: a641 3a98 3d96 f03f 75d8 4440 8d78 f03f
000005e0: af86 8658 d65a f03f debd 33b5 0c3d f03f
000005f0: add1 dc0b 831f f03f 42f7 172e b301 f03f
00000600: 89d4 63d2 f9c7 ef3f 6bc3 64e6 728c ef3f
00000610: 3960 3a5f 2251 ef3f c9b5 911f bc15 ef3f
00000620: 1fdf 0c23 43da ee3f 498d da73 ec9e ee3f
00000630: 5bbc 787c a063 ee3f b576 172c 6128 ee3f
00000640: 2405 995d 30ed ed3f 1f74 e3c0 f7b1 ed3f
00000650: 3163 77a6 d176 ed3f 559c ff17 a83b ed3f
00000660: 5696 5ff9 6500 ed3f 01ea 2383 3cc5 ec3f
00000670: 3cbc 2c40 ff89 ec3f 03b7 2256 de4e ec3f
00000680: af97 678a 9713 ec3f 0ae7 f99d 5ad8 eb3f
00000690: 4472 fd5a 299d eb3f d597 ae79 0562 eb3f
000006a0: 8dc6 c54a c526 eb3f a565 6801 aceb ea3f
000006b0: 9f04 befd 8fb0 ea3f 3283 415d 8875 ea3f
000006c0: 9f3c 5da3 813a ea3f 43b8 3616 a7ff e93f
000006d0: 4ee9 8f6c d0c4 e93f 8586 2dbe 138a e93f
000006e0: bf06 df35 724f e93f c5ad f8f1 ec14 e93f
000006f0: 24c6 c004 85da e83f c9d9 cb47 14a0 e83f
00000700: 6c25 bd69 ea65 e83f e635 c195 cd2b e83f
00000710: c485 ac46 d2f1 e73f 6c7e f86e e6b7 e73f
00000720: 5d5a ddd8 307e e73f d070 db38 9f44 e73f
00000730: 46a0 5ae2 1f0b e73f 49de 7e04 b4d1 e63f
00000740: 1700 72f6 8098 e63f bc78 a9f0 745f e63f
00000750: ddab 19f8 6c26 e63f f0ad 7e75 9fed e53f
00000760: ad06 0d83 e9b4 e53f e36b 356e 5d7c e53f
00000770: 1ec7 8ab2 fb43 e53f b80f 03d4 d50b e53f
00000780: d67f ad14 b9d3 e43f d28c d4d0 e99b e43f
00000790: 9a6c da4e 4664 e43f faa5 44ed ce2c e43f
000007a0: d51f 2105 84f5 e33f d726 38ea 65be e33f
000007b0: 2c8c a405 8587 e33f 487d 763d e150 e33f
000007c0: 8731 1b9d 6a1a e33f c57d 2ed7 40e4 e23f
000007d0: 19aa 253a 44ae e23f 2c06 4cfd 9378 e23f
000007e0: 39fd f7c6 0143 e23f a6ea f788 da0d e23f
000007f0: 32c2 d9d3 e0d8 e13f dbea 0510 24a4 e13f
0.0 3449.2301693391214 1181.6204067276083 557.8089322787775 315.6029296669314 200.7130245840087 138.5131758698429 101.51328749013392
77.80718319609879 61.76336363904716 50.40346519071049 42.0503015098841 35.758753599443295 30.862042878736236 26.961956247384563 23.816299585272017
21.25327712640966 19.13553744017804 17.348424318464794 15.844688795506016 14.54786541381605 13.423330696746898 12.442444298677492 11.579144759584864
10.815947749928984 10.137860098111524 9.531290645077489 8.987649073578002 8.496784942269421 8.053068030961498 7.650636708672539 7.283093491232848
6.947256824279576 6.639887150830923 6.357381507621933 6.09703676400953 5.856159973563867 5.632435984735774 5.425126199535822 5.232610552423405
5.052611509916006 4.884539587883387 4.7265500434289445 4.578293263947618 4.4384781281725925 4.307559395094588 4.184572746842801 4.068460453644604
3.958495377190837 3.8544139219905875 3.756330847759828 3.663262236775492 3.5753668511624825 3.49145583351343 3.4111207217215154 3.3346018125492316
3.2620922346791126 3.1931801195338525 3.127631729466352 3.0649687014538745 3.00501933478732 2.9481165070006345 2.893101819569822 2.8402237151520167
2.789806767988261 2.741151424573109 2.694584572731624 2.649775561871832 2.6070233677887114 2.5659122479844414 2.5265377199644847 2.4886175863553595
2.452081249319785 2.4167778705579535 2.38265377458822 2.3497401933244757 2.3179032397592167 2.2871757060813724 2.2575849662842167 2.2289320784869098
2.2013236468438637 2.1746420990741075 2.1489112013344287 2.1240157374855295 2.0999804271356814 2.0766348407876265 2.0540099152411995 2.032254575055558
2.0109671074604294 1.9904209306716383 1.9704659653566965 1.9510204014777532 1.9321743938897138 1.913903513043015 1.8960278389729792 1.8786886385778867
1.8616642917604695 1.845241403746406 1.8292502227567011 1.813580975326154 1.7983630425834534 1.783488838351206 1.7691694829585876 1.7550332507011088
1.741248837490143 1.7277624115631143 1.714606065849252 1.7016073349005838 1.689002410045592 1.676659931262051 1.6645340426375024 1.6526567625888464
1.6410199596387018 1.6296518605328483 1.6184717431530844 1.6075441110316115 1.5967570061687966 1.5862424030737226 1.575923925933503 1.5657300623978385
1.55572239740872 1.545831953599466 1.5360873677171052 1.5264847471419345 1.5170203363366181 1.507660887713344 1.4984334587092567 1.4893059368082922
1.4802763620919814 1.471370646115971 1.462558256527418 1.453837530370514 1.4452338999976 1.4366927997106198 1.4282401945725278 1.419875070136433
1.4115463327649942 1.403304508725784 1.3951242249307396 1.3869575296290977 1.3789009682710984 1.3708592183371022 1.362903062731472 1.3550087133813506
1.3471313008578254 1.3392944967773044 1.3315641537732412 1.3238095344121332 1.3160972808864833 1.3084487436481058 1.3008017241298881 1.2931988111371289
1.2855997516231024 1.2780454775936627 1.2705161683545356 1.2630122931413004 1.2554961857752505 1.248044926594753 1.2406017196744972 1.2331675979869303
1.2257616515875744 1.2183841353473706 1.2110176100289947 1.2036978348330896 1.1963553790587902 1.189060411053089 1.181778766806812 1.1745277784429713
1.167258220179545 1.160004368501191 1.1527668047311994 1.1455143507652235 1.1382643031124815 1.1310021702643107 1.123760089601507 1.116523298022141
1.1092627666317922 1.1020102080355796 1.0947520471075862 1.0874897901159424 1.080253520472518 1.0730011849185193 1.0657485935182227 1.0584831627447853
1.0512339729871847 1.043988181783016 1.036679834975169 1.0294315824990268 1.0221770723368697 1.0149046972472813 1.0076933349019825 1.0004150200397395
0.9931611165217343 0.9858946323275694 0.9786540851519084 0.9714031807504223 0.9641433415008328 0.9568998587387024 0.9496614867292793 0.9424291478314532
0.9352037265854602 0.9279745833733876 0.9207542659088174 0.913532301780729 0.9062986250471095 0.899076706059816 0.8918453458226234 0.884627502664188
0.877391596147154 0.8701603970978067 0.8629347588681147 0.855715501461186 0.8484827480699139 0.8412685420509446 0.8340530353454091 0.8268472501186805
0.8196418944079545 0.812457602869252 0.8052751655916752 0.7981051172648256 0.7909480144664583 0.7838043905261932 0.776674756320237 0.7695409204741789
0.7624408784114798 0.7553470539948506 0.7482692127561497 0.7411987464328837 0.7341541515005009 0.7271267042629237 0.7201079770065995 0.7130985343746455
0.7061161816964184 0.6991524410657557 0.6921906324108665 0.685256700021851 0.6783340034091531 0.6714312698853714 0.664548729624787 0.6576947346552435
0.6508450893270445 0.6440323904720577 0.6372405567266413 0.6304697641509727 0.6237201786216199 0.616991956195501 0.6102929220400077 0.6036230278440735
0.5969746654969165 0.5903629496351007 0.5837727676092214 0.5772190043646268 0.5706795583827563 0.5641911196865592 0.5577243936259662 0.5512867272330725

EE f8 [5001]
00000000: 0000 0000 0000 0000 0000 0000 0000 0000
00000010: f985 58a4 3dc7 a53f 8ee4 2ecc f066 9f3f
00000020: 8539 582b fb88 923f 853c adfe b1e6 823f
00000030: 6bac 54a7 4909 713f 8d8c 1531 1d65 5c3f
00000040: 5d90 3f96 8ecc 483f 27fc 81b2 df1b 3b3f
00000050: 633d b743 8681 323f 799f 0a59 e15f 2b3f
00000060: a1d5 0e88 ba3a 243f 3c7f 3997 9f98 203f
00000070: 1967 03e8 9777 1c3f 2c00 1443 7400 193f
00000080: 8ca6 99dd bcd1 163f 1a98 1f56 5f5b 163f
00000090: 73bd 332d 54c6 163f 99e3 c3e3 2809 173f
000000a0: 14d9 8374 94cf 163f 1603 41af 0d7e 163f
000000b0: 9179 67f4 9b8f 163f eeee f9ef 0664 173f
000000c0: cd79 cca3 cb12 193f ced0 4cba d86c 1b3f
000000d0: f611 e2c5 4a24 1e3f 272d 5356 a07a 203f
000000e0: 0014 b0cb b1de 213f 955d e4d4 3d38 233f
000000f0: fd90 8d8a 2886 243f 9944 d392 bec6 253f
00000100: 9cc3 df04 9ff7 263f c795 5d3d 4115 283f
00000110: 2644 67cb 931f 293f a481 a09f 321a 2a3f
00000120: 78da cc9d 0e0b 2b3f a971 25e4 18fa 2b3f
00000130: c861 98c4 d0ed 2c3f 2e67 34a1 33e5 2d3f
00000140: cb0a cd08 a5de 2e3f 6a6e e824 b4d9 2f3f
00000150: 60a4 6042 876b 303f e1f6 a932 bdeb 303f
00000160: d98d 162f 016d 313f 8c32 7718 73ef 313f
00000170: 15fd b188 fd72 323f cd78 cb84 3bf6 323f
00000180: 8eb8 b7e9 0078 333f 6998 6298 5cf6 333f
00000190: 3502 159b 5e6f 343f 2f43 d136 aae1 343f
000001a0: 96bc ba2a f351 353f c50c d14b f6c6 353f
000001b0: 5446 5fbc ee40 363f efd8 a954 88bf 363f
000001c0: 7394 84f3 0b3e 373f 215b b86f ebb7 373f
000001d0: 3aad c4a5 6a2c 383f 266e f8fb cc9b 383f
000001e0: 0add 0805 bf06 393f 205f 1dca 556f 393f
000001f0: a24f 5f79 e9d5 393f f230 f6d5 6c3a 3a3f
00000200: d149 c6f1 269e 3a3f eb7e 9526 4f01 3b3f
00000210: ef74 a687 d962 3b3f c184 53ff 89c2 3b3f
00000220: 7e77 5e54 d720 3c3f 6656 7c89 637c 3c3f
00000230: 3471 2171 b4d5 3c3f 4cd8 48b3 522c 3d3f
00000240: bd30 0c19 0f80 3d3f 4a62 708f bcd0 3d3f
00000250: a749 3fbd a01e 3e3f cca0 2f13 656a 3e3f
00000260: 71cc b562 5eb4 3e3f de0e 496c 54fc 3e3f
00000270: cc71 519d 9742 3f3f 951a 2f8d 1486 3f3f
00000280: b127 023b cbc6 3f3f 219e 57e4 f101 403f
00000290: 5f06 ba7f e41e 403f 0580 467a 153a 403f
000002a0: b31a b26b 8b53 403f a293 faed 236b 403f
000002b0: 8361 a170 0381 403f c34e 084e fd94 403f
000002c0: 9da5 ce53 36a7 403f b5c0 74bc 9eb7 403f
000002d0: 9b7c 3e1b 04c6 403f e803 fc53 6cd2 403f
000002e0: 68ea 8910 dfdc 403f ff93 a7bc 72e5 403f
000002f0: 11d7 00ad 0fec 403f ef4d eabf d7f0 403f
00000300: fe8b 872a d5f3 403f e488 2fe5 11f5 403f
00000310: e250 f4ff a1f4 403f de96 b700 70f2 403f
00000320: 709f 173e 9aee 403f 5e29 0003 8be9 403f
00000330: 39da 67cc 99e2 403f e1a2 1303 44da 403f
00000340: 2f58 7e49 a2d0 403f c0ae f6c3 71c5 403f
00000350: 11e6 f19e 25b9 403f fa85 b9cd 24ab 403f
00000360: c3f1 6d20 e19b 403f 7d2e c56f 1d8b 403f
00000370: 1f61 045e f378 403f d4a9 83d3 ca65 403f
00000380: b9e1 55fb 6251 403f 895a cebc cc3b 403f
00000390: 562c d5b0 cb24 403f 89e4 3234 090d 403f
000003a0: a554 fb85 64e7 3f3f 5e67 513c 49b2 3f3f
000003b0: 8b22 8cd9 fe7b 3f3f 0121 86aa 7d43 3f3f
000003c0: 81e8 d7ac cf07 3f3f 876e 2af1 3dcb 3e3f
000003d0: 645b 8ad2 bf8b 3e3f 54d3 f65e ff49 3e3f
000003e0: 22ab b757 9c06 3e3f a46c 2755 2ec1 3d3f
000003f0: a96a f148 4e7a 3d3f dc6a bc29 1a31 3d3f
00000400: 334f 6ca8 a3e6 3c3f 548e 3814 0e9a 3c3f
00000410: 61cf 79c7 754b 3c3f 6acc 0d27 defb 3b3f
00000420: ecd0 272d 75aa 3b3f 81f7 ef72 c757 3b3f
00000430: 5c05 56c6 ea03 3b3f 7153 eebe 86ae 3a3f
00000440: 3e70 4edd b357 3a3f 00a0 6074 f3ff 393f
00000450: f3de a9b1 eea6 393f 0a5f 05cb 884d 393f
00000460: 7e71 04b3 9cf2 383f d059 0844 a696 383f
00000470: c891 d1a5 1a3a 383f d1f7 6555 07dd 373f
00000480: 599d 892e 197f 373f 12cb 55a7 1d21 373f
00000490: 5b56 584e 04c2 363f 3fcc 8f12 f462 363f
000004a0: 91fb fbd9 3d03 363f f5c8 1dda 48a3 353f
000004b0: ffed d0e6 7643 353f 72c0 fc7a 76e3 343f
000004c0: 7102 14d5 fb82 343f 95a2 f7ac be22 343f
000004d0: 032e e067 c5c2 333f 140b 9f0e 1663 333f
000004e0: b479 1a52 b603 333f d1a5 8e8f aba4 323f
000004f0: 4f62 b898 4a46 323f d9ee e4a7 f7e7 313f
00000500: 3c83 41c9 558a 313f 8161 9924 b32d 313f
00000510: 37c8 8a4c 76d1 303f 0ab5 1b14 ee75 303f
00000520: 1ec0 446f 651b 303f 43e3 a39a 2283 2f3f
00000530: c819 ebe6 05d2 2e3f 34d8 3d0f bf21 2e3f
00000540: 5fb9 0213 1675 2d3f ae4a cedb c9c9 2c3f
00000550: 2d19 46fe 7821 2c3f f15a 48d5 157c 2b3f
00000560: b8a1 5b5b 0cd9 2a3f 44ba 692d 5438 2a3f
00000570: 0f89 8783 f39b 293f caa9 89ce c701 293f
00000580: c387 d0aa 4b6b 283f c857 55fe ecd7 273f
00000590: 709f 4852 1749 273f 6630 6c01 bfbc 263f
000005a0: b449 1232 4c34 263f ac7d d6fa a9af 253f
000005b0: 71a1 9151 3c2f 253f 97cc 746a 74b2 243f
000005c0: dc5d e2ba b439 243f 5b04 809d cfc5 233f
000005d0: 7dde 12ad cc55 233f 9c58 92d8 6eea 223f
000005e0: 1718 1497 8383 223f 9406 6f36 2821 223f
000005f0: e088 397c 8ec3 213f f399 41fe b96a 213f
00000600: a595 40c3 ad16 213f 120f 4f66 8cc7 203f
00000610: 3551 537f 617d 203f 92bf 2d40 4238 203f
00000620: 5ac2 612a 85f0 1f3f 3013 2bf2 fe7a 1f3f
00000630: e160 7e9c eb0f 1f3f 53e6 319e 6caf 1e3f
00000640: 5d75 2852 8d59 1e3f 17f6 75a2 a60e 1e3f
00000650: 9757 73d0 83ce 1d3f 6706 47b4 7899 1d3f
00000660: 1121 8238 756f 1d3f 7fa8 3002 a250 1d3f
00000670: f6a3 c784 123d 1d3f 6314 5264 b334 1d3f
00000680: 99e1 e8ef ba37 1d3f fe92 b987 1346 1d3f
00000690: f166 b8e7 ef5f 1d3f 08fc 7851 4a85 1d3f
000006a0: 8f51 db6d 1cb6 1d3f 8569 5480 82f2 1d3f
000006b0: ddf1 fd00 1d3a 1e3f 1cbd ab2b 618e 1e3f
000006c0: bae5 4d91 4ded 1e3f 3804 d12d fe57 1f3f
000006d0: c559 1454 23ce 1f3f 1b12 13bb b727 203f
000006e0: e082 fc66 706e 203f 1c19 5ec9 c0ba 203f
000006f0: ef33 95e0 240d 213f 47cc e12f 2365 213f
00000700: d1a6 96af 95c2 213f 8a6e cff8 f425 223f
00000710: fbe5 57d0 188f 223f df54 c307 dafd 223f
00000720: 088a b375 1272 233f 86af f205 e9eb 233f
00000730: cc8d 1e89 376b 243f 7f97 ba94 23f0 243f
00000740: b3c4 0eda 3c7a 253f ff61 e295 3c0a 263f
00000750: 742b 0b02 699f 263f 9879 e919 e739 273f
00000760: 9d17 55a7 92d9 273f 24d4 5a6d 8f7e 283f
00000770: 4c3a 82b3 ff28 293f 5fa8 00b6 32d8 293f
00000780: cf2b f922 4d8c 2a3f 7cd0 90e8 b645 2b3f
00000790: 618d 4baa c303 2c3f f23e ffca dac6 2c3f
000007a0: 3679 2eef 968e 2d3f 15f7 12c3 1a5b 2e3f
000007b0: d9b0 45a1 452c 2f3f a233 6d23 db00 303f
000007c0: 2fec 96de 496e 303f 9c02 ad68 7bdd 303f
000007d0: c628 7def 224f 313f 9158 26a7 b0c2 313f
000007e0: f6e7 11a7 7338 323f d419 eaf5 fcaf 323f
000007f0: b21a a78c b929 333f a715 4754 1da5 333f
0.0 0.0 0.04253571158575293 0.030666124784805286 0.018100666542574046 0.009229078850380166 0.004159248075022419 0.0017330918384111133
0.0007568069672712164 0.00041364871368182666 0.00028237846319441854 0.00020885110690937648 0.0001543381404453372 0.00012661884430808536 0.00010859360373008073 9.537419898109138e-05
8.704867595956729e-05 8.528489482237424e-05 8.687866948141835e-05 8.787452765436492e-05 8.701652143714252e-05 8.580168270190219e-05 8.606328365299276e-05 8.922855703901906e-05
9.564750594079977e-05 0.00010461876679529748 0.00011498171213204081 0.00012572486153881424 0.00013633652073977154 0.00014663462429418948 0.00015658612144443104 0.0001661403306685613
0.00017522636556990552 0.00018373891242188923 0.00019167594082472697 0.00019914501155061687 0.00020632317946374704 0.00021344713065730756 0.0002207105010689893 0.0002280831837218554
0.00023551716403787665 0.0002429993059685943 0.00025054981449785206 0.0002581917675924372 0.00026589659600004045 0.0002736717219391858 0.00028151216310586094 0.00028933480352389963
0.0002970697621255202 0.000304601293814938 0.0003118139239468882 0.00031862645739004746 0.0003253191632479139 0.0003322936352711632 0.00033956364165730235 0.00034710958849561065
0.0003546504190288853 0.000361914615241531 0.00036885837268370617 0.0003754973840572627 0.000381871829663053 0.0003881058165595575 0.0003942198758271014 0.00040021092532850557
0.0004061551169566554 0.0004120653380450384 0.00041787920749831916 0.0004235827357899729 0.0004292035777043664 0.00043466024497837983 0.00043998389549472776 0.00044514674235374553
0.0004501377925840813 0.0004549465515437985 0.00045958923624058807 0.00046410529756580883 0.0004685144837914329 0.0004728036986174476 0.00047699166799988475 0.0004810142683563748
0.00048487149889153274 0.0004885130990119371 0.0004919639317934702 0.0004952053900986192 0.0004982405438490239 0.0005010533750079325 0.0005036608502094062 0.0005060421790994075
0.0005082144995089303 0.0005101704672707737 0.0005118866015329128 0.0005133656449914899 0.0005146111662520216 0.0005156336058546039 0.0005164219419444301 0.0005169919457607678
0.0005173483705757096 0.0005174958590681536 0.0005174437536959143 0.0005171820534399481 0.0005167248856965245 0.0005161217468423842 0.0005152941674271889 0.0005143005456860994
0.0005131523530390642 0.0005118184562226888 0.0005103524871536443 0.0005086831765305771 0.0005068635226588781 0.0005048650487337738 0.0005026996914550308 0.0005004158365669539
0.0004979832944363361 0.0004954099364223456 0.0004926676353219732 0.0004898352566648094 0.00048681453880068177 0.0004836491392033927 0.0004804131690865707 0.00047704523105852886
0.00047348804659431287 0.00046987783677263816 0.00046609337963714735 0.00046217426912713755 0.00045815770110262295 0.00045401936691087164 0.0004497948766066054 0.00044543160196190506
0.0004409932666231575 0.0004364284870652425 0.00043174386471566377 0.00042699979444832967 0.0004221473765533407 0.0004172193466159755 0.0004122207813779999 0.00040713109677286476
0.00040195599768267146 0.00039672559467129886 0.00039141967287246933 0.00038609113382424896 0.00038067174593139203 0.00037519034597846296 0.00036967421130487373 0.0003641264824166798
0.00035852780141572765 0.0003529260059941679 0.00034725766303842436 0.000341591442121817 0.00033588657423416166 0.00033016708959289427 0.00032445576545445104 0.000318733621486273
0.00031298301935581754 0.0003072467343075228 0.0003015262553851263 0.0002958229875923851 0.00029013825597159625 0.00028447330947275774 0.000278847896625166 0.00027322574887354633
0.0002676448286873972 0.0002621233330493342 0.00025662553938865816 0.00025116980042024005 0.0002457735675021072 0.00024041936314469535 0.0002351410107250386 0.00022988755483383113
0.0002247418829077292 0.00021963681311073152 0.00021462060898275997 0.00020969168203129705 0.00020483280029927136 0.00020004298740468514 0.0001953825719872089 0.00019078792617517457
0.00018630312607209433 0.0001819111632054822 0.00017765435872374056 0.00017347175226978538 0.0001694052707859724 0.00016545247983133554 0.00016162501632100868 0.0001579062565980379
0.00015430766274414267 0.00015085372319848214 0.00014751552092716675 0.0001443157491720124 0.0001412485249049917 0.00013831725956774522 0.00013552774736342362 0.00013288040566124224
0.00013037558676491398 0.0001280173193248737 0.0001258069529855938 0.00012374695515004732 0.0001218396451763219 0.00012008839670858413 0.00011849284703513735 0.00011705494357441255
0.00011577534727576695 0.0001146592336364816 0.00011370353250880618 0.00011291312427543777 0.00011228707274047271 0.0001118277437376653 0.00011153626946448767 0.0001114115230667775
0.00011145666574286505 0.00011167043879252087 0.00011205579533459985 0.00011261240103353787 0.00011333988683343551 0.00011423989788675842 0.00011530687356570793 0.00011656253893098763
0.00011797700819995193 0.00011956681142157109 0.00012132731082590334 0.00012325399214864547 0.00012536165331147094 0.0001276359877772714 0.00013009143030231994 0.0001327138379028944
0.00013549878330581256 0.0001384603059751864 0.00014159372237525212 0.00014489447119695514 0.00014835810984610586 0.00015198916932967712 0.00015578320431784557 0.00015974459016837234
0.0001638602525680148 0.00016815175599017848 0.00017259747348527153 0.0001772017103176093 0.0001819602509078284 0.00018687725849067624 0.0001919567237149304 0.0001971780684482697
0.00020254556283058478 0.00020807130593570092 0.00021373523227117677 0.0002195493775602946 0.00022550194225074712 0.0002315969627825701 0.0002378306386491339 0.0002441916471312371
0.00025071433500628825 0.0002573419848666354 0.00026411631505552887 0.0002710038453640563 0.0002780229907056725 0.0002851479129407895 0.0002924039842152989 0.0002997585873142035

BB f8 [5001]
00000000: 0000 0000 0000 0000 0000 0000 0000 0000
00000010: 7a11 e824 aee3 c23e f4bb fd93 5be4 c23e
00000020: 94c3 a484 3fe5 c23e db48 4c29 5ae6 c23e
00000030: ed7d 4ff2 aae7 c23e 7a40 8d24 31e9 c23e
00000040: 833a 476d ebea c23e cacd e66d d8ec c23e
00000050: d64b 3acf f6ee c23e 1d25 b4b6 44f1 c23e
00000060: 0563 9e58 c0f3 c23e 7082 6db8 67f6 c23e
00000070: 97b3 90c9 38f9 c23e 0ad5 5c61 31fc c23e
00000080: 3d1d 5531 4fff c23e 6ba8 84dc 8f02 c33e
00000090: f522 38e6 f005 c33e 8422 dacf 6f09 c33e
000000a0: bc95 d4fd 090d c33e 1055 90ce bc10 c33e
000000b0: 7233 dd9b 8514 c33e 9641 e5b2 6118 c33e
000000c0: a08c d45e 4e1c c33e f736 50ed 4820 c33e
000000d0: 1b89 d0ac 4e24 c33e 9e20 d5f2 5c28 c33e
000000e0: 06c2 fa1c 712c c33e 9751 7c92 8830 c33e
000000f0: d6e7 6bca a034 c33e e8cf 004c b738 c33e
00000100: 98eb 3db0 c93c c33e 1580 f7a5 d540 c33e
00000110: beaf 46f3 d844 c33e ddb9 b377 d148 c33e
00000120: cdb4 3e2d bd4c c33e 4408 892b 9a50 c33e
00000130: 262e daa7 6654 c33e a9f5 3bf8 2058 c33e
00000140: 3d02 3493 c75b c33e b24c 3611 595f c33e
00000150: 4da4 242d d462 c33e 16e6 fac5 3766 c33e
00000160: 7899 97de 8269 c33e b08e b09d b46c c33e
00000170: 766a e84d cc6f c33e 6e0c 4e5e c972 c33e
00000180: f490 ef61 ab75 c33e 8eb2 f40e 7278 c33e
00000190: 2616 b53e 1d7b c33e a04d 54ec ac7d c33e
000001a0: 3b03 0034 2180 c33e 3036 4f52 7a82 c33e
000001b0: f19e 69a2 b884 c33e 7d46 fd9c dc86 c33e
000001c0: 1f12 11d7 e688 c33e 7b89 5d00 d88a c33e
000001d0: 1c76 19e1 b08c c33e ecb1 7859 728e c33e
000001e0: 4df5 aa5e 1d90 c33e dcc7 a3f9 b291 c33e
000001f0: 48ec 6545 3493 c33e b083 b36c a294 c33e
00000200: baed 5da8 fe95 c33e db1c 413d 4a97 c33e
00000210: 432c 6e7a 8698 c33e d152 41b7 b499 c33e
00000220: 5f88 5951 d69a c33e 5909 fcaa ec9b c33e
00000230: 2793 0429 f99c c33e 2e04 6b31 fd9d c33e
00000240: 8d2b 5429 fa9e c33e 9f62 9773 f19f c33e
00000250: d53f 4d6f e4a0 c33e 4cca 3076 d4a1 c33e
00000260: e798 89db c2a2 c33e 0b6c a5ea b0a3 c33e
00000270: 8b88 ede5 9fa4 c33e 8c70 c205 91a5 c33e
00000280: e328 9677 85a6 c33e f345 285d 7ea7 c33e
00000290: 56eb cecb 7ca8 c33e 4ade eccb 81a9 c33e
000002a0: 69d0 7258 8eaa c33e ebda 905e a3ab c33e
000002b0: 9149 66bd c1ac c33e 737f 0a46 eaad c33e
000002c0: 84a8 59bb 1daf c33e 86e4 42d2 5cb0 c33e
000002d0: 59be c231 a8b1 c33e 1e3d 4573 00b3 c33e
000002e0: b343 fb22 66b4 c33e f250 52c0 d9b5 c33e
000002f0: 5b17 7bbe 5bb7 c33e 8f1c fa84 ecb8 c33e
00000300: c8b4 3970 8cba c33e 9cb0 66d2 3bbc c33e
00000310: f576 01f4 fabd c33e 5791 c614 cabf c33e
00000320: 770a 646c a9c1 c33e a5e1 542b 99c3 c33e
00000330: 693a b47b 99c5 c33e 3376 1a82 aac7 c33e
00000340: 11fb 665e ccc9 c33e 59dc 9f2c ffcb c33e
00000350: 44a1 aa05 43ce c33e 60bf 2800 98d0 c33e
00000360: b606 3131 fed2 c33e 3f55 ffac 75d5 c33e
00000370: be16 9b87 fed7 c33e 6ba8 7dd5 98da c33e
00000380: 50d8 23ac 44dd c33e b121 8322 02e0 c33e
00000390: 45a4 8451 d1e2 c33e 704b 6454 b2e5 c33e
000003a0: cb26 fb48 a5e8 c33e d196 0850 aaeb c33e
000003b0: 9499 518d c1ee c33e 462d c327 ebf1 c33e
000003c0: 255e 7c49 27f5 c33e dbee c11f 76f8 c33e
000003d0: 9b48 deda d7fb c33e fcdd 05ae 4cff c33e
000003e0: ab60 09cf d402 c43e c8d8 1476 7006 c43e
000003f0: c38f 4fdd 1f0a c43e 9474 7540 e30d c43e
00000400: 28af 60dc ba11 c43e bfd2 84ee a615 c43e
00000410: 4da2 68b4 a719 c43e 38eb 0a6b bd1d c43e
00000420: b6ac 484e e821 c43e 1da6 3298 2826 c43e
00000430: 96f3 6f80 7e2a c43e 0add 7f3b ea2e c43e
00000440: 7cd3 1cfa 6b33 c43e 6f52 7be8 0338 c43e
00000450: 2fcc a92d b23c c43e 7a0f d8ea 7641 c43e
00000460: f548 b33a 5246 c43e 391d c230 444b c43e
00000470: 19ef c0d8 4c50 c43e a320 1436 6c55 c43e
00000480: f4e1 3343 a25a c43e 03eb 29f1 ee5f c43e
00000490: 308a 1527 5265 c43e be0e c8c1 cb6a c43e
000004a0: 23fa 5993 5b70 c43e 0021 de62 0176 c43e
000004b0: ade5 18ec bc7b c43e 6cda 4bdf 8d81 c43e
000004c0: 37c2 0de1 7387 c43e 4745 348a 6e8d c43e
000004d0: dcb2 c367 7d93 c43e 6499 fffa 9f99 c43e
000004e0: 6925 78b9 d59f c43e 9a7d 310d 1ea6 c43e
000004f0: 81c4 d754 78ac c43e 34b8 00e4 e3b2 c43e
00000500: 4e29 7803 60b9 c43e bb50 9ff1 ebbf c43e
00000510: c101 d7e2 86c6 c43e 5b3f f201 30cd c43e
00000520: fb84 b770 e6d3 c43e 1336 6648 a9da c43e
00000530: a81b 519a 77e1 c43e 254b 6f70 50e8 c43e
00000540: 9cc8 07ce 32ef c43e bd2f 4db0 1df6 c43e
00000550: 58f8 130f 10fd c43e f120 78dd 0804 c53e
00000560: e739 910a 070b c53e 0160 2482 0912 c53e
00000570: 25d0 582d 0f19 c53e e15d 60f3 1620 c53e
00000580: 040b 2cba 1f27 c53e 49d3 1367 282e c53e
00000590: 18a4 7adf 2f35 c53e 52ec 7109 353c c53e
000005a0: 862a 4ecc 3643 c53e 6d03 3f11 344a c53e
000005b0: fcbb d3c3 2b51 c53e 8fb6 82d2 1c58 c53e
000005c0: d2d1 1a2f 065f c53e 541c 35cf e665 c53e
000005d0: 34aa 98ac bd6c c53e c65c 90c5 8973 c53e
000005e0: a79e 3b1d 4a7a c53e 684e cdbb fd80 c53e
000005f0: de8c c5ae a387 c53e 070a 1d09 3b8e c53e
00000600: 1202 63e3 c294 c53e e3d7 d45b 3a9b c53e
00000610: 79f9 6696 a0a1 c53e d7b0 c4bc f4a7 c53e
00000620: c009 47fe 35ae c53e f5e3 e08f 63b4 c53e
00000630: 8ff5 00ac 7cba c53e cfb7 6d92 80c0 c53e
00000640: ce47 1688 6ec6 c53e ae3b e2d6 45cc c53e
00000650: 1cec 74cd 05d2 c53e f610 edbe add7 c53e
00000660: 6ea4 a202 3ddd c53e be0e def3 b2e2 c53e
00000670: b917 8ef1 0ee8 c53e 7e54 f95d 50ed c53e
00000680: 0e3f 729e 76f2 c53e 09ff 071b 81f7 c53e
00000690: 8617 3a3e 6ffc c53e 0f1a ab74 4001 c63e
000006a0: 6664 d82c f405 c63e 0df8 d1d6 890a c63e
000006b0: a764 f9e3 000f c63e 29aa c0c6 5813 c63e
000006c0: 91e7 74f2 9017 c63e 81b7 06db a81b c63e
000006d0: 87d1 dff4 9f1f c63e 3e1b bbb4 7523 c63e
000006e0: 1eb1 848f 2927 c63e d7d7 41fa ba2a c63e
000006f0: 7836 016a 292e c63e e06a d153 7431 c63e
00000700: 1484 bf2c 9b34 c63e 9b13 e069 9d37 c63e
00000710: bb55 5c80 7a3a c63e 1bd9 8ae5 313d c63e
00000720: f595 0c0f c33f c63e 7f31 f472 2d42 c63e
00000730: 244c f387 7044 c63e 6312 8ec5 8b46 c63e
00000740: a3fc 55a4 7e48 c63e 1fc6 2a9e 484a c63e
00000750: 81c9 7e2e e94b c63e dd8c a3d2 5f4d c63e
00000760: 0e60 170a ac4e c63e 801b d856 cd4f c63e
00000770: 9186 b93d c350 c63e 1c78 bc46 8d51 c63e
00000780: d1ba 67fd 2a52 c63e 615c 23f1 9b52 c63e
00000790: 4579 92b5 df52 c63e 7917 eee2 f552 c63e
000007a0: e510 5d16 de52 c63e 4dfc 4af2 9752 c63e
000007b0: 99ef bc1e 2352 c63e f96f a249 7f51 c63e
000007c0: 94e5 2227 ac50 c63e 59ec e571 a94f c63e
000007d0: afb2 57eb 764e c63e c014 e85b 144d c63e
000007e0: b42d 4293 814b c63e a58d 7f68 be49 c63e
000007f0: 7575 53ba ca47 c63e b10a 306f a645 c63e
0.0 0.0 2.2517890905257095e-06 2.25210456499631e-06 2.2525191855294884e-06 2.253033310481006e-06 2.253645919200517e-06 2.254355682053451e-06
2.2551601921224785e-06 2.256056958327531e-06 2.2570435421280853e-06 2.2581165716224753e-06 2.259272780369048e-06 2.260508554938465e-06 2.261820168067461e-06 2.263203678599451e-06
2.2646548908687506e-06 2.266169506400181e-06 2.267743001164628e-06 2.2693708377523277e-06 2.271048272678014e-06 2.2727705197936952e-06 2.2745327602824705e-06 2.2763300854615808e-06
2.2781575724925373e-06 2.280010316108436e-06 2.281883416902929e-06 2.283772025411174e-06 2.285671349820881e-06 2.287576666657429e-06 2.289483365000722e-06 2.2913869486499465e-06
2.293283047847269e-06 2.295167447860522e-06 2.297036099293728e-06 2.298885133470597e-06 2.3007108697821813e-06 2.3025098381543953e-06 2.304278779179943e-06 2.3060146662190364e-06
2.307714703442508e-06 2.309376336115376e-06 2.3109972541357993e-06 2.3125754039204575e-06 2.3141089868672218e-06 2.3155964590392645e-06 2.3170365317630688e-06 2.318428175164493e-06
2.3197706151436077e-06 2.321063327001479e-06 2.322306036059055e-06 2.323498707776462e-06 2.3246415423731242e-06 2.3257349703656913e-06 2.3267796394505176e-06 2.3277764071093317e-06
2.328726332242203e-06 2.329630663420652e-06 2.3304908232508016e-06 2.331308404787541e-06 2.332085150185076e-06 2.3328229420355368e-06 2.3335237912514843e-06 2.334189820638444e-06
2.3348232529010365e-06 2.3354263963024845e-06 2.336001631635745e-06 2.336551398621864e-06 2.337078181467242e-06 2.3375844974148495e-06 2.3380728820958322e-06 2.338545879027496e-06
2.339006025869065e-06 2.3394558439189594e-06 2.339897827864627e-06 2.3403344342695704e-06 2.3407680738606683e-06 2.341201100692415e-06 2.341635805634217e-06 2.3420744082580557e-06
2.342519050462225e-06 2.342971791032634e-06 2.343434600563501e-06 2.343909357629079e-06 2.344397845266802e-06 2.3449017487979548e-06 2.3454226536014746e-06 2.3459620453608012e-06
2.3465213086398336e-06 2.3471017290525217e-06 2.347704493109269e-06 2.3483306909388363e-06 2.348981318657918e-06 2.3496572816949e-06 2.3503593985255487e-06 2.351088404687106e-06
2.351844956830112e-06 2.3526296388434698e-06 2.353442965881821e-06 2.354285390820047e-06 2.3551573092872835e-06 2.3560590657579046e-06 2.3569909594131123e-06 2.3579532502777033e-06
2.3589461648204837e-06 2.3599699021620494e-06 2.3610246392033447e-06 2.3621105367451644e-06 2.363227744634661e-06 2.3643764066420268e-06 2.3655566650817815e-06 2.366768665431004e-06
2.3680125603676985e-06 2.369288513024748e-06 2.370596700402896e-06 2.3719373160117818e-06 2.3733105719334495e-06 2.37471670085335e-06 2.37615595692908e-06 2.377628616744755e-06
2.379134979590074e-06 2.3806753671177524e-06 2.3822501224536223e-06 2.3838596094301924e-06 2.385504210427536e-06 2.3871843245717118e-06 2.3889003650679355e-06 2.390652756352623e-06
2.3924419308064605e-06 2.3942683250683724e-06 2.3961323763098116e-06 2.398034517928605e-06 2.3999751752788637e-06 2.401954760940208e-06 2.403973670349377e-06 2.406032276521348e-06
2.408130925691424e-06 2.4102699319550893e-06 2.4124495728249815e-06 2.4146700841071304e-06 2.4169316553492023e-06 2.4192344252914097e-06 2.4215784773222164e-06 2.423963835544093e-06
2.426390460660361e-06 2.428858246359356e-06 2.4313670158743138e-06 2.4339165192193587e-06 2.436506430225002e-06 2.4391363444045385e-06 2.4418057769342353e-06 2.4445141611998736e-06
2.4472608476866123e-06 2.4500451033601826e-06 2.452866111216053e-06 2.4557229707400147e-06 2.458614698279297e-06 2.4615402281350127e-06 2.4644984140056334e-06 2.4674880308084164e-06
2.4705077768017266e-06 2.473556276231119e-06 2.4766320822768543e-06 2.4797336802342274e-06 2.4828594911019257e-06 2.4860078752856126e-06 2.4891771368859015e-06 2.4923655277201843e-06
2.4955712520864268e-06 2.4987924710836017e-06 2.5020273076706315e-06 2.505273851264552e-06 2.508530162737726e-06 2.5117942793577434e-06 2.5150642197994417e-06 2.5183379888206934e-06
2.521613582274846e-06 2.5248889917679854e-06 2.528162209209955e-06 2.5314312313541067e-06 2.5346940639205425e-06 2.537948725817401e-06 2.541193252817828e-06 2.5444257013205496e-06
2.5476441514965423e-06 2.5508467104448833e-06 2.5540315149637187e-06 2.557196733931133e-06 2.5603405705459863e-06 2.5634612640742037e-06 2.5665570914532105e-06 2.5696263684937595e-06
2.572667450712276e-06 2.5756787339859896e-06 2.57865865479974e-06 2.581605690240873e-06 2.5845183577465926e-06 2.5873952145508266e-06 2.5902348568518145e-06 2.5930359188108266e-06
2.595797071244257e-06 2.598517020286715e-06 2.6011945057059033e-06 2.603828299115492e-06 2.6064172021401184e-06 2.6089600443939705e-06 2.6114556814253083e-06 2.6139029925356674e-06
2.616300878672992e-06 2.618648260232954e-06 2.62094407494062e-06 2.6231872757049244e-06 2.6253768286130847e-06 2.6275117109278142e-06 2.629590909280865e-06 2.6316134178656827e-06
2.63357823695755e-06 2.6354843713693125e-06 2.637330829275377e-06 2.639116621103344e-06 2.640840758646786e-06 2.6425022543975253e-06 2.64410012110785e-06 2.6456333715290514e-06
2.647101018369178e-06 2.648502074544717e-06 2.6498355535457786e-06 2.6511004701204063e-06 2.652295841082002e-06 2.6534206863991034e-06 2.6544740304528642e-06 2.655454903468297e-06
2.656362343144893e-06 2.6571953964597525e-06 2.657953121565002e-06 2.6586345899123966e-06 2.659238888407667e-06 2.6597651217071644e-06 2.660212414615938e-06 2.660579914506e-06
2.6608667937835715e-06 2.661072252423426e-06 2.6611955204612267e-06 2.6612358605152456e-06 2.6611925702265114e-06 2.661064984671045e-06 2.6608524787123924e-06 2.660554469248105e-06
2.660170417359464e-06 2.6596998303186412e-06 2.6591422634863466e-06 2.658497322063387e-06 2.65776466263297e-06 2.6569439945820866e-06 2.6560350813014893e-06 2.6550377412182736e-06

TE f8 [5001]
00000000: 0000 0000 0000 0000 0000 0000 0000 0000
00000010: d009 cd87 09da 0940 85fd 3002 7276 fe3f
00000020: 2b2e f151 ddd8 f13f fb6b d7af b300 e53f
00000030: b535 db41 a10f d93f 7817 de6d 6b61 ce3f
00000040: ea4c de55 7fba c23f 65f6 caf1 35f7 b73f
00000050: b41d 73e5 ae61 b03f f1ec 9d7f b476 a83f
00000060: ff7d 9e22 36fd a33f 8452 edce 8c6d a13f
00000070: be66 9191 fcc8 9f3f 48bf 5502 fcc2 9d3f
00000080: d4f1 49fb 582d 9c3f bc44 8990 69ae 9a3f
00000090: bd15 602c f221 993f 048d d98e e594 973f
000000a0: 4ea9 c8c7 3f10 963f edf7 e09a d8ac 943f
000000b0: 0468 7a4b e26b 933f 40ce a33f 2350 923f
000000c0: 6dad f621 d35b 913f 892a b606 898d 903f
000000d0: 71de 87d0 f2c8 8f3f ed28 01b3 e8a9 8e3f
000000e0: c33e a2c9 9fab 8d3f 6e64 6c29 b3bd 8c3f
000000f0: e24a 9d1b 80cd 8b3f e8aa 0a45 29ce 8a3f
00000100: 546e 1bce b9b9 893f 1e89 945a 168c 883f
00000110: 20aa 94f1 c845 873f 3e0d 5a63 4ded 853f
00000120: 69fb d180 9387 843f 514a b853 181b 833f
00000130: 7cfd c944 6ab1 813f 5242 48aa af4d 803f
00000140: fba5 dae9 dce1 7d3f 53e7 a6ca 0a37 7b3f
00000150: c4d1 1e76 389b 783f 1f63 d884 930e 763f
00000160: 8864 d044 2194 733f d55b 7a8b 862e 713f
00000170: cc3e 43d7 3ab1 6d3f 4339 38b5 291e 693f
00000180: c3ab 4860 88ad 643f ddb3 1b0d 2864 603f
00000190: 1e83 5266 cd45 583f a425 48cd a532 4f3f
000001a0: 2856 021f 3fcd 3a3f a080 c923 f000 23bf
000001b0: 5410 3da7 679f 46bf 6220 5aab 9fd4 53bf
000001c0: 2262 ae51 13ed 5bbf 65eb 0605 f4d4 61bf
000001d0: 297c a52e f393 65bf 8876 3421 3d40 69bf
000001e0: 1a6d a791 cedf 6cbf 934d 43cb f63a 70bf
000001f0: eaec 8470 e202 72bf f3a5 9089 7dc8 73bf
00000200: 1be6 3a06 de8c 75bf 0550 793e 1050 77bf
00000210: 106e 31f1 5c0e 79bf ede5 1eb6 fcc2 7abf
00000220: be09 93e3 2e6b 7cbf 5155 5c90 6f04 7ebf
00000230: db7e e13e 1291 7fbf 5b21 a1fa 2f8a 80bf
00000240: dca1 2dd5 7b48 81bf aede bcee 4104 82bf
00000250: 9c5c 8cf9 60bd 82bf 9b34 87a1 6473 83bf
00000260: 19d2 7ca8 3b26 84bf 6fc5 ac2f 8fd5 84bf
00000270: f677 86a6 c981 85bf 6321 caf5 9628 86bf
00000280: d67d 40d5 83ca 86bf 1160 9417 b367 87bf
00000290: 99df 64d9 e8ff 87bf ab09 7073 4a93 88bf
000002a0: 690c 1676 4c21 89bf bfa9 a71b c9aa 89bf
000002b0: 4ea1 28ac 8d2f 8abf cd8a 07dd 6daf 8abf
000002c0: c517 242e 932a 8bbf bc03 bcab c1a1 8bbf
000002d0: 5bba 1129 e313 8cbf ce1e 6787 7481 8cbf
000002e0: eea1 38b7 64ea 8cbf aeaa 409f f04e 8dbf
000002f0: 0a28 155e c5ae 8dbf 902b e173 660a 8ebf
00000300: 3876 9898 c761 8ebf 3345 77e1 deb4 8ebf
00000310: 95cf 7173 2303 8fbf d269 1583 d34d 8fbf
00000320: 8a82 b685 a993 8fbf 846f c466 dad5 8fbf
00000330: d6fc 64a1 f109 90bf 8554 5c15 1b27 90bf
00000340: fa9f 6978 0f42 90bf bf58 6fce 245b 90bf
00000350: 3161 3e75 5872 90bf b6b0 5064 8d87 90bf
00000360: 743b eefd f89a 90bf 1b55 66ee 7eac 90bf
00000370: e3a2 6560 05bc 90bf 4a4f f598 d8c9 90bf
00000380: a3ee eff9 f1d5 90bf a9e9 188a 32e0 90bf
00000390: e66d 15c2 95e8 90bf 55bb b750 2fef 90bf
000003a0: 7221 16e7 faf3 90bf 30fb 94e7 f4f6 90bf
000003b0: ff74 1bf1 46f8 90bf 6fad 9b8c c0f7 90bf
000003c0: 1921 c382 75f5 90bf 4ffd 26b3 78f1 90bf
000003d0: c7dc eb42 c7eb 90bf c299 d565 73e4 90bf
000003e0: 072a 67af 3ddb 90bf 5f82 f334 76d0 90bf
000003f0: 0e16 3b19 1ac4 90bf 451a 6ef9 26b6 90bf
00000400: a05a 93e4 9aa6 90bf 83ed 8153 7495 90bf
00000410: 8c82 6321 b282 90bf e1db f755 8a6e 90bf
00000420: 0124 0df4 c658 90bf 170e 02ec b041 90bf
00000430: 703b ea5b f128 90bf 026a 1841 e10e 90bf
00000440: 24e9 2bde 7ae6 8fbf 6a74 11a6 96ac 8fbf
00000450: ada8 09fe f56f 8fbf 86af eb74 9b30 8fbf
00000460: 62ef bb54 c9ee 8ebf 617c a87c 41aa 8ebf
00000470: 9fa3 3d01 4563 8ebf c74a d858 f319 8ebf
00000480: 4fbf 339d 4cce 8dbf 957e 3c3e 5180 8dbf
00000490: 4764 ac29 1f30 8dbf 5cfd 0f73 99dd 8cbf
000004a0: 3098 fba1 1689 8cbf 3376 4fe0 7832 8cbf
000004b0: 29ce ad8c 88d9 8bbf 89ab 2b13 d07e 8bbf
000004c0: 4dd6 59cf 3022 8bbf a700 5e38 73c3 8abf
000004d0: 2e32 654a 0063 8abf c1ba 494d d400 8abf
000004e0: 797b 4782 059d 89bf 51d7 22c4 7637 89bf
000004f0: 7e58 a060 57d0 88bf e694 12e1 bb67 88bf
00000500: 9c09 4c5b 87fd 87bf 4d3d 8089 fe91 87bf
00000510: 93b5 5588 3325 87bf 2c9e cddf 08b7 86bf
00000520: 910c a93b bf47 86bf ebc1 0c01 22d7 85bf
00000530: 8ca0 4b2c 7065 85bf d150 5a8d cff2 84bf
00000540: 547f bd0e 0c7f 84bf dd37 de8b 350a 84bf
00000550: ce6e 6956 8694 83bf e5d0 dfb1 cb1d 83bf
00000560: b362 678a 3ea6 82bf b0d1 5aae eb2d 82bf
00000570: 039e 7e6b dfb4 81bf 80fd 423f 113b 81bf
00000580: 7147 0265 8dc0 80bf 0a35 fe18 8845 80bf
00000590: ba90 61c7 c993 7fbf dc86 7cf9 5e9b 7ebf
000005a0: f486 1c2e 33a2 7dbf da34 c47d 59a8 7cbf
000005b0: fc43 af07 99ad 7bbf f89f 523b 50b2 7abf
000005c0: d6d7 4326 6bb6 79bf f5b5 3754 68ba 78bf
000005d0: 14c7 17e6 c4bd 77bf 7fc9 5b50 d9c0 76bf
000005e0: cc2c 5256 fac3 75bf bbe1 4ead edc6 74bf
000005f0: 65ce e508 28ca 73bf 752d 5532 2acd 72bf
00000600: 0320 a2c8 66d0 71bf 4534 7f41 2ad4 70bf
00000610: 7f09 dac2 30b0 6fbf ee8a 0f84 3ab9 6dbf
00000620: b1ef 46ac 3dc3 6bbf c8d2 4cc9 c8ce 69bf
00000630: 6921 56e1 a5db 67bf 5f48 53e2 1eea 65bf
00000640: 9df3 07ad 7afa 63bf c604 bf82 820c 62bf
00000650: 62da dfad bb20 60bf 2899 d8ad e26d 5cbf
00000660: db9e 760b 38a0 58bf 8912 3080 16d7 54bf
00000670: b7f0 2075 5213 51bf beaf aba5 6faa 4abf
00000680: 5c2c 9b73 353a 43bf 1425 705c d3ac 37bf
00000690: 3b30 a6e4 6200 22bf 8999 fb62 b745 163f
000006a0: 1e4c 3a4a f405 343f c027 76eb d22e 413f
000006b0: b95a fb21 f54a 483f 9918 61bc a756 4f3f
000006c0: 0978 ec7c 5229 533f 40b5 65a1 689e 563f
000006d0: 775a 2caf cd0a 5a3f bd20 b998 1f6f 5d3f
000006e0: 9cc1 317f 8364 603f 09af 78cf ec0c 623f
000006f0: bc12 33d5 73b0 633f 586c 8286 5a4f 653f
00000700: 1238 449e b6e8 663f 2f1c 98c3 617d 683f
00000710: 0efa e8db 760c 6a3f 5f5c 69e9 6b96 6b3f
00000720: 72b5 6440 f31a 6d3f 3509 bc38 c299 6e3f
00000730: 72a8 fd41 8f09 703f 9ec1 a524 77c3 703f
00000740: 1a40 9447 757a 713f 4a46 5b8e 672e 723f
00000750: 353b d484 71df 723f 78b1 e2ef 718d 733f
00000760: e442 d8a6 7538 743f ca57 36d6 5ce0 743f
00000770: 8195 67ef 3485 753f ad43 cf47 f526 763f
00000780: f7ac 335b 6ac5 763f 58d4 6a6a b860 773f
00000790: 90d4 081a d8f8 773f b0af 4a58 ad8d 783f
000007a0: 9302 9103 5c1f 793f 1ca4 5915 9fad 793f
000007b0: 0bba d899 af38 7a3f 6bd5 f4b8 5ec0 7a3f
000007c0: 77f3 541e bc44 7b3f f017 e102 c3c5 7b3f
000007d0: aff9 05fc 5a43 7c3f 6759 1008 a8bd 7c3f
000007e0: 4624 2381 9234 7d3f 7ab1 1cba 03a8 7d3f
000007f0: e4fe ba92 0c18 7e3f f52a e78e bd84 7e3f
0.0 0.0 3.2314634904334767 1.9039173207855538 1.1154454422820759 0.6563356813816194 0.3915789740684333 0.23734801163316965
0.14631644909659453 0.09361588624138902 0.06399052717016823 0.047780647829279384 0.03904122517201002 0.03403892541851852 0.03104014051891712 0.029064118998064076
0.027516737306074138 0.026055955359258517 0.024543556173758797 0.023028933376179075 0.021546360558354842 0.020190605595637057 0.018966232163258226 0.017883826026219518
0.016951846073124544 0.016164914164202435 0.015519997586110197 0.014972513163361312 0.01448750337684091 0.014033698751108239 0.01357555469772848 0.013088533801540916
0.012561275102988358 0.011985945357598168 0.01136357295270779 0.010706524462199437 0.010024216049939931 0.009329023413589573 0.008639173721575182 0.007960674652197106
0.0072954778130820365 0.006644289164279576 0.0060074048541775595 0.005384994741256559 0.004779939609783963 0.004194760862126186 0.003624548839162722 0.0030661406142435134
0.0025241530986667995 0.0020008833170010857 0.0014814859253322109 0.0009520825938704081 0.0004089621643371421 -0.00014498645204508599 -0.0006903892631062816 -0.0012103614111840457
-0.0017044724142804076 -0.0021767393120319272 -0.0026340245869245394 -0.003082389253576793 -0.0035246882009524307 -0.0039624824896295095 -0.004397282151610707 -0.0048298744014032445
-0.005261294634402637 -0.005691588834071841 -0.006117213301958482 -0.006533610490742953 -0.006938155326852101 -0.007328449055213086 -0.0077067101211409595 -0.008076071582892188
-0.008439032977279597 -0.008797183130453714 -0.009150273910149935 -0.009497438601920918 -0.00983854873593608 -0.010172957079336268 -0.01050145663685596 -0.010819606185820068
-0.01112845415633405 -0.011428259999362951 -0.011718577513064864 -0.011999684951665332 -0.012270543435766794 -0.012532778889142613 -0.0127860134280843 -0.013029917056831231
-0.013264798970805356 -0.01349211984006781 -0.013709807101091423 -0.013918791181722592 -0.014118944970577165 -0.014310722217563434 -0.014493505414652236 -0.014668274318088398
-0.014834937424036729 -0.014993420844720084 -0.01514270492609863 -0.01528516048226872 -0.015418362038702744 -0.015544611226282042 -0.01566293284963368 -0.015774176768065935
-0.01587700054588479 -0.015972685909070302 -0.016061193614946127 -0.016142091033700644 -0.016216173647588275 -0.016283019352688926 -0.01634224320278833 -0.016394981704549928
-0.01644113624568767 -0.0164802452838814 -0.016512241335801557 -0.016537417699449126 -0.016555710176846934 -0.016567064890519123 -0.016572102037447852 -0.01657009943202808
-0.016561351877300987 -0.016546140608395373 -0.016524423083833974 -0.016496470537640702 -0.016461337881802176 -0.016420218450436837 -0.016373069562879698 -0.01631985566521112
-0.016260547829768712 -0.016195123288054624 -0.016123564994702508 -0.016046678063471268 -0.01596365799494848 -0.01587559166411098 -0.01578118442062809 -0.015681762312036447
-0.01557632437242213 -0.015465905135153519 -0.015350267233959458 -0.015229429727206211 -0.015103886507396861 -0.014973174683346526 -0.014837779140821015 -0.01469793429263201
-0.01455364088766911 -0.014404902183343263 -0.014251941165229222 -0.014094542335441211 -0.01393335038978813 -0.01376814302960403 -0.013598505776577135 -0.013425469956436025
-0.013248807266090479 -0.013068103940668442 -0.012884142179836546 -0.012696894272463568 -0.012506526029879105 -0.012312820301626866 -0.012116129528333849 -0.011916606718225652
-0.011714036439575186 -0.011508930751033342 -0.011301424596889464 -0.011091298417979699 -0.010879034050168353 -0.010664239556349172 -0.010447384216107268 -0.010228749753231988
-0.010007948112331334 -0.009785097437795482 -0.009560632240371982 -0.009334174505035661 -0.009106148337126063 -0.008876649149308274 -0.008645768611883936 -0.008413443320363312
-0.008179764409110142 -0.007945121062017186 -0.007709301184238787 -0.007472392076836445 -0.007234764025072716 -0.006996488166135262 -0.006757352612980046 -0.0065177091648038685
-0.006277483513477086 -0.006037147078570272 -0.005796212325991385 -0.005555008776115477 -0.005313852195409651 -0.005072525430414416 -0.0048314632280042945 -0.004590191679493362
-0.004349137782021731 -0.004108586370375871 -0.003868193852043677 -0.0036283629310543885 -0.003388996558184553 -0.0031503602607706217 -0.002912353501134547 -0.0026751139836074657
-0.002438773728725653 -0.002203230766071404 -0.00196873336880836 -0.0017351831114723135 -0.0015030429184238945 -0.0012719840749479147 -0.0010422044038156783 -0.0008137746002296815
-0.0005867730135035265 -0.0003612533586766092 -0.00013734061424164494 8.496219447415831e-05 0.00030553068266065016 0.0005243806726167241 0.0007413575112547789 0.0009563750288712646
0.0011695199534140796 0.0013805410177057525 0.0015894898066954025 0.0017965134201336907 0.0020010536477956375 0.00220342876470692 0.0024034750327664705 0.0026013153147466488
0.0027965132486604894 0.0029894742444898296 0.0031797715630823625 0.0033676250125540953 0.003552889919908147 0.003735427226161959 0.0039153667456536135 0.00409266033453584
0.004267175792179523 0.00443878604501575 0.0046076235132790815 0.004773564402210766 0.004936656548594629 0.005096781390781355 0.0052539890079733595 0.005408247115114157
0.005559363798265374 0.005707474111365483 0.005852550647024959 0.005994488838648879 0.006133422307414665 0.00626909391358146 0.006401716176283499 0.00653111458750764
0.0066573475244781 0.006780397188839146 0.006900172622748376 0.007016807911915591 0.007130214961031339 0.007240309294314401 0.007347153772286428 0.007450809919144365
